checkpoint.pth (torch, 173575 bytes, 8 tensors)

fc1.weight f4 [256, 4]
-0.16257833 0.49825913 -0.75620127 -0.43787596 -0.3779376 0.2622563 0.23052329 0.26858878
-0.044372022 0.13230628 -0.15110654 -0.098282695 -0.47767425 -0.33114105 -0.20611155 0.018521786
0.12660278 0.6304892 -0.68938935 -0.3619183 -0.2629969 0.09780217 -0.5113595 0.05895181
0.026078487 0.12193842 0.39930782 -0.9253996 -0.55291086 0.02631428 0.066735394 0.64757985
-0.32408983 -0.23016644 -0.34932023 -0.4682805 -0.5834249 0.67099357 0.04680303 -0.03730527
0.026295781 -0.25634176 0.08459234 -0.46684736 -0.741596 -0.51336336 0.46400744 0.41164517
-0.05875261 -0.14010088 0.44668818 0.1731857 0.30999407 0.083364025 0.53348505 -0.581908
0.093172014 -0.38765275 -0.34654307 -0.25829178 0.16483691 0.07015836 -0.6288989 0.06628815
0.24156983 0.0767236 0.10172592 0.1763921 0.12310602 0.61437017 -1.0604022 -0.5027782
0.08743131 0.14211315 0.065970674 0.12673305 0.09950727 -0.43479133 0.04599625 -0.31280267
-0.72633815 0.44837165 0.34619904 -0.62895143 0.09358603 -0.084230006 -0.082280576 -0.22887844
0.14615709 -0.3914515 -0.040173765 0.044467002 0.30414203 0.5219475 -0.7678902 -0.622881
0.20867987 0.06367305 -0.43101948 -0.32888687 0.48278868 0.23414974 -0.30374414 -0.3423731
-0.47629905 -0.008987069 -0.37652946 -0.38567835 -0.027165871 0.10175901 -0.37956336 0.2513606
-0.049993128 0.4356517 0.36017922 -0.5055266 -0.386617 -0.06057391 0.00886008 -0.048912432
0.2528138 0.09898045 -0.16023077 0.30243096 -0.47962445 -0.29635334 -0.12516493 -0.24355668
-0.28780532 -0.52258426 -0.21920197 -0.0059251096 -0.6464013 0.008228969 0.6407725 -0.0714123
-0.17528145 -0.45650283 -0.15685356 0.14170635 0.21917872 0.21222499 0.18312597 -0.18354724
-1.0399896 -0.12611696 0.8501998 -0.015281936 -0.24852318 -0.38315588 -0.46792603 -0.4220041
-0.20482485 0.5220934 0.27355742 -0.90062255 0.42839545 -0.37935996 0.024740895 -0.8416624
-0.096307635 -0.09817135 -0.44867498 -0.43171895 -0.11476047 -0.030353865 -0.26365718 0.15182845
-0.8386139 0.4887372 0.5601367 -0.3185062 0.44751143 0.24407685 -0.43267545 0.4481727
-0.44554478 -0.46532825 0.9001432 -0.49989155 -0.22731802 -0.39145115 0.28715137 -0.230271
0.30535683 0.02778097 -0.25762537 -0.1879861 -0.6361579 0.23059785 0.4424144 -0.009518362
-0.35268915 0.022299945 -0.35246706 -0.2752421 -0.29135275 0.17087251 -0.2979566 -0.010908604
-0.09569103 0.39208153 -0.83807236 -0.46798414 -0.84067124 0.5986605 -1.1510525 0.5773581
0.19136658 0.6767803 -0.5402238 -0.6791561 0.041271847 -0.14225143 -0.0324785 0.035654835
-0.750166 0.21688332 0.8095656 -0.6446874 -0.40000153 0.4417407 0.4756629 -0.64734083
-0.48900735 0.20311737 -0.34009504 -0.1916424 -0.17012997 0.10162084 0.07811504 0.37109178
0.0026188958 0.8538961 0.045099817 -0.81990176 0.7243833 -0.5432405 -0.6316646 0.2316696
0.056069873 0.3042244 -0.42222396 -0.3807737 0.26599365 -0.71234864 0.62076974 -0.8908772
0.6131678 -0.26510736 -0.7155542 0.268227 0.67183787 -0.14392626 -0.11006521 -0.4848741
00000000: ef7a 26be d21b ff3e 6896 41bf 4731 e0be
00000010: 0981 c1be 7546 863e 4c0e 6c3e 7884 893e
00000020: 70bf 35bd 4c7b 073e acbb 1abe 7048 c9bd
00000030: b891 f4be 528b a9be e80e 53be 00bb 973c
00000040: 29a4 013e bd67 213f d27b 30bf 5b4d b9be
00000050: 88a7 86be 814c c83d 75e8 02bf 7477 713d
00000060: 8da2 d53c daba f93d 1372 cc3e fde6 6cbf
00000070: 918b 0dbf 0c91 d73c 91ac 883d cbc7 253f
00000080: 1aef a5be c0b0 6bbe 1ada b2be 76c2 efbe
00000090: 565b 15bf 3cc6 2b3f 89b4 3f3d 69cd 18bd
000000a0: 406a d73c 3a3f 83be c03e ad3d 9e06 efbe
000000b0: 3cd9 3dbf c86b 03bf 6292 ed3e 28c3 d23e
000000c0: 94a6 70bd 9b76 0fbe 50b4 e43e 9857 313e
000000d0: 8bb7 9e3e c2ba aa3d 7a92 083f ecf7 14bf
000000e0: f8d0 be3d 6c7a c6be 186e b1be d23e 84be
000000f0: 02cb 283e 30af 8f3d 85ff 20bf 15c2 873d
00000100: 155e 773e 4321 9d3d ae55 d03d 21a0 343e
00000110: 021f fc3d 5d47 1d3f 42bb 87bf 12b6 00bf
00000120: 300f b33d 1c86 113e a21b 873d 4fc6 013e
00000130: 78ca cb3d f89c debe 9066 3c3d ac27 a0be
00000140: 4cf1 39bf f890 e53e 0041 b13e f602 21bf
00000150: 08aa bf3d c880 acbd b882 a8bd 1c5f 6abe
00000160: 34aa 153e 556c c8be 3f8d 24bd 0823 363d
00000170: 81b8 9b3e 5a9e 053f 7494 44bf 2175 1fbf
00000180: 2db0 553e 0467 823d 96ae dcbe dc63 a8be
00000190: 1430 f73e f3c4 6f3e 5a84 9bbe 874b afbe
000001a0: 78dd f3be 803e 13bc 78c8 c0be a277 c5be
000001b0: f68a debc 0767 d03d 2156 c2be 56b2 803e
000001c0: 98c5 4cbd bd0d df3e 6969 b83e 316a 01bf
000001d0: aaf2 c5be 591c 78bd de29 113c 6758 48bd
000001e0: cf70 813e 43b6 ca3d 8913 24be 3bd8 9a3e
000001f0: 5691 f5be a0bb 97be 3c2b 00be ec66 79be
00000200: 385b 93be 15c8 05bf 7b76 60be 6c27 c2bb
00000210: 8e7a 25bf ccd2 063c ab09 243f 9d40 92bd
00000220: fb7c 33be bdba e9be 389e 20be 781b 113e
00000230: 6370 603e 8251 593e 6085 3b3e cff3 3bbe
00000240: 611e 85bf ce24 01be b2a6 593f 1661 7abc
00000250: dc7c 7ebe 022d c4be 0094 efbe ec10 d8be
00000260: 9bbd 51be eaa7 053f b80f 8c3e 338f 66bf
00000270: a656 db3e 783b c2be 6bad ca3c 3077 57bf
00000280: f03c c5bd 100e c9bd bab8 e5be 440a ddbe
00000290: 8a07 ebbd aba8 f8bc 13fe 86be eb78 1b3e
000002a0: 67af 56bf c33b fa3e 1e65 0f3f 3f13 a3be
000002b0: 3820 e53e 48ef 793e a387 ddbe e476 e53e
000002c0: 721e e4be 813f eebe c96f 663f c9f1 ffbe
000002d0: 0ec6 68be 496c c8be 8105 933e 29cc 6bbe
000002e0: bb57 9c3e eb94 e33c 79e7 83be 6e7f 40be
000002f0: 3edb 22bf d821 6c3e 2484 e23e e7f2 1bbc
00000300: ac93 b4be 60ae b63c 9076 b4be 88ec 8cbe
00000310: 302c 95be 34f9 2e3e c48d 98be 00ba 32bc
00000320: a9f9 c3bd e9be c83e e98b 56bf 9e9b efbe
00000330: 3b36 57bf d141 193f b055 93bf becd 133f
00000340: 9af5 433e 7941 2d3f 1b4c 0abf 2ddd 2dbf
00000350: ab0c 293d 5caa 11be 2d08 05bd ce0a 123d
00000360: e10a 40bf a916 5e3e b13f 4f3f 3c0a 25bf
00000370: 00cd ccbe d62b e23e 168a f33e 21b8 25bf
00000380: 2c5f fabe 00fe 4f3e f020 aebe e83d 44be
00000390: 8d36 2ebe 961e d03d c7fa 9f3d beff bd3e
000003a0: c8a1 2b3b ef98 5a3f 96ba 383d 15e5 51bf
000003b0: 2f71 393f cf11 0bbf c5b4 21bf cc3a 6d3e
000003c0: 86a9 653d 4dc3 9b3e bd2d d8be c5f4 c2be
000003d0: 5230 883e 7b5c 36bf c4ea 1e3f 8710 64bf
000003e0: 91f8 1c3f 27bc 87be 8f2e 37bf 0d55 893e
000003f0: 91fd 2b3f 6861 13be de69 e1bd 6b41 f8be

fc1.bias f4 [256]
0.8870192 -0.66124845 -0.28829253 0.20276642 -0.14405271 0.13866957 0.8329415 0.6343419
-0.03953737 0.07460539 -0.02528292 0.06761322 -0.70307803 0.055365518 -0.41590047 0.78998923
-1.1030179 0.78481966 -1.2368487 -0.28643763 0.32748765 0.07453954 0.6075219 0.6793911
-0.5226469 0.47333714 -0.09415692 -0.30248716 0.57975996 1.3534077 -0.84734637 -0.045211673
0.29782957 0.6452707 0.77025336 -0.94674134 -0.19082339 0.42995483 0.25336844 1.04206
-0.2088483 -0.35755315 0.2931738 -0.74201113 0.10945461 0.2460445 0.43670687 -0.33836606
0.24790317 -0.31737566 1.2434278 -0.33943757 -0.57941926 -0.14512734 0.6108863 -0.1645596
0.16169916 -0.8490996 0.49165627 0.051319744 -0.13618119 0.9246899 0.24935192 0.37197757
-0.030799568 -1.0086328 -0.35652927 0.6767241 -0.20049828 0.72970384 0.039806753 -0.3603569
-0.17020573 -0.45883274 0.3434633 0.61767316 -0.024533505 -0.06583413 0.4805394 1.3113259
-0.33887863 -0.35686332 -0.3921913 -0.8991806 -0.71913147 0.09023587 -0.769077 -0.16403182
-0.89076996 0.58641154 -0.46280074 -0.6254669 0.64530903 -0.36020207 -1.4626502 -0.9187781
-1.242687 -0.18313606 -0.33386385 -0.12076127 -1.0156343 -0.65633434 -0.4429537 -0.08749807
0.48967007 -0.23674056 -0.3789171 0.66662294 0.15669972 0.34908503 -0.2590846 0.005270649
0.00024132009 -0.6712644 0.6581209 -0.49803996 0.24981284 0.62967086 -0.25694412 0.4193102
0.24163389 -1.3029456 0.38937604 -0.599636 0.7056756 -0.36829147 0.39277095 -0.5824892
-0.27692708 0.23407775 0.8989683 -0.523493 -0.7277823 0.43914127 -0.083848715 0.2071423
-0.4296026 -0.2892885 -0.5057451 0.6903141 0.082084484 -0.4835702 -1.0056665 -0.032359704
-0.10458007 -0.28553832 -0.20668542 0.6076006 -0.08438147 -0.8509984 -0.43131375 -0.052933194
0.13610595 -0.5326889 -1.2163374 0.21326564 -0.27991998 -0.14826299 0.9383234 -0.48670477
-0.55185086 -0.17259385 -0.5082426 1.3531924 1.0620711 -0.44209456 -0.30028987 0.53759974
-0.11131022 1.1714847 0.5116588 -0.48527357 0.7042377 -0.0628608 0.69208175 0.44320235
0.5202791 0.7015788 0.54190123 -1.5417477 0.12994914 -0.136438 -0.6001256 0.39989388
-0.044159412 -0.2764958 -0.58885765 -0.2761823 -0.69990444 -0.5330763 -0.2565541 -0.81192803
0.21526206 0.5288437 -0.43772352 0.832956 0.36909235 -0.14054383 -0.0200009 0.03694117
-0.12742075 0.11470397 -0.33950567 0.6003209 0.8686689 -0.38629454 0.4082818 0.7941392
-0.2489466 -0.16046603 0.7395437 -1.4802648 -0.4964589 0.11665237 0.17068546 -0.96258056
-0.33560312 1.3911406 0.150078 -1.0507722 0.09752331 -0.98488486 -0.49306962 -0.72717637
1.059559 -1.0724682 0.9274518 1.1627749 -0.9725362 -0.4476052 0.31932133 0.62806743
0.6445864 -0.9161914 0.42754793 0.9254984 -0.46518236 0.05231315 0.53514415 -0.44815618
-0.0070342054 0.09269514 -0.6713825 0.8261057 0.7601708 0.42897737 -0.06232339 0.89489836
-1.1348319 -0.26981467 -0.10694057 -0.2570712 1.5052094 0.52834815 0.3551628 0.7493941
00000000: b113 633f 9447 29bf 149b 93be 00a2 4f3e
00000010: 8e82 13be 65ff 0d3e a73b 553f 3b64 223f
00000020: f0f1 21bd b6ca 983d 201e cfbc cd78 8a3d
00000030: ecfc 33bf f4c6 623d e8f0 d4be bc3c 4a3f
00000040: b12f 8dbf f1e9 483f 0f51 9ebf f4a7 92be
00000050: 76ac a73e 30a8 983d 8e86 1b3f 93ec 2d3f
00000060: 30cc 05bf 3f59 f23e 58d5 c0bd 99df 9abe
00000070: 266b 143f 773c ad3f b1eb 58bf e02f 39bd
00000080: 1e7d 983e 7630 253f 532f 453f a45d 72bf
00000090: 3567 43be 0a23 dc3e 82b9 813e 3962 853f
000000a0: 54dc 55be 3511 b7be e01a 963e 71f4 3dbf
000000b0: bd29 e03d 17f3 7b3e 0b98 df3e 513e adbe
000000c0: 54da 7d3e 107f a2be a428 9f3f c3ca adbe
000000d0: d254 14bf 439c 14be 0b63 1c3f 5082 28be
000000e0: 7794 253e 975e 59bf 5fba fb3e a734 523d
000000f0: 1573 0bbe 7ab8 6c3f 1c56 7f3e d873 be3e
00000100: 604f fcbc e11a 81bf 018b b6be ca3d 2d3f
00000110: 6c4f 4dbe dfcd 3a3f 680c 233d b380 b8be
00000120: 694a 2ebe 20ec eabe 6cda af3e d41f 1e3f
00000130: 7dfa c8bc 0bd4 86bd 4309 f63e 87d9 a73f
00000140: 8081 adbe cab6 b6be 4ccd c8be b330 66bf
00000150: 0019 38bf 95cd b83d 3be2 44bf f5f7 27be
00000160: 8009 64bf 111f 163f 38f4 ecbe 991e 20bf
00000170: f932 253f 686c b8be 1f38 bbbf 0b35 6bbf
00000180: 5e10 9fbf 0588 3bbe 34f0 aabe af51 f7bd
00000190: 4e00 82bf 8705 28bf d4ca e2be 3032 b3bd
000001a0: 09b6 fa3e 1e6c 72be 6c01 c2be cda7 2a3f
000001b0: e475 203e 46bb b23e bda6 84be 69b5 ac3b
000001c0: de0a 7d39 fcd7 2bbf 9c7a 283f 18ff febe
000001d0: f0ce 7f3e 1c32 213f 2e8e 83be d4af d63e
000001e0: e06e 773e ecc6 a6bf 4c5c c73e bf81 19bf
000001f0: 28a7 343f b390 bcbe 4619 c93e 031e 15bf
00000200: 63c9 8dbe 14b2 6f3e c922 663f a303 06bf
00000210: f14f 3abf 20d7 e03e e0b8 abbd 1c1d 543e
00000220: dff4 dbbe 9f1d 94be 8378 01bf 6db8 303f
00000230: e91b a83d 8396 f7be aeb9 80bf 9c8b 04bd
00000240: 132e d6bd 1432 92be 58a5 53be b78b 1b3f
00000250: 31d0 acbd 08db 59bf 28d5 dcbe 7ad0 58bd
00000260: 5c5f 0b3e 4d5e 08bf f2b0 9bbf 4f62 5a3e
00000270: ac51 8fbe 41d2 17be f635 703f 5e31 f9be
00000280: 1946 0dbf 71bc 30be 301c 02bf 6935 ad3f
00000290: f2f1 873f 385a e2be 98bf 99be 23a0 093f
000002a0: 9df6 e3bd 36f3 953f 12fc 023f c775 f8be
000002b0: ec48 343f 2abd 80bd 452c 313f 6beb e23e
000002c0: 0331 053f ab9a 333f 0aba 0a3f fd57 c5bf
000002d0: 6311 053e 67b6 0bbe d5a1 19bf e4be cc3e
000002e0: 80e0 34bd dc90 8dbe 60bf 16bf c467 8dbe
000002f0: f02c 33bf b077 08bf 0f5b 83be 84da 4fbf
00000300: a86d 5c3e 4d62 073f 4c1d e0be 9b3c 553f
00000310: acf9 bc3e b9ea 0fbe edd8 a3bc a04f 173d
00000320: 967a 02be eae9 ea3d b0d3 adbe a1ae 193f
00000330: 1661 5e3f 66c8 c5be 500a d13e b54c 4b3f
00000340: dceb 7ebe 3551 24be bc52 3d3f 5179 bdbf
00000350: dc2f febe 70e7 ee3d 2bc8 2e3e ae6b 76bf
00000360: 2cd4 abbe e510 b23f 0cae 193e b47f 86bf
00000370: 4dba c73d 6a21 7cbf 9f73 fcbe 3b28 3abf
00000380: a19f 873f a346 89bf 7b6d 6d3f cfd5 943f
00000390: 22f8 78bf 822c e5be 167e a33e 07c9 203f
000003a0: 9d03 253f 858b 6abf 90e7 da3e 77ed 6c3f
000003b0: 622c eebe 5046 563d 35ff 083f ba74 e5be
000003c0: 317f e6bb f3d6 bd3d b9df 2bbf aa7b 533f
000003d0: 8e9a 423f eca2 db3e d046 7fbd 0f18 653f
000003e0: 2c42 91bf 2625 8abe a803 dbbd d69e 83be
000003f0: b4aa c03f d341 073f e6d7 b53e 4bd8 3f3f

fc2.weight f4 [128, 256]
1.2893268 -0.31530282 0.009126537 0.016255781 0.4766861 0.05375481 -0.45490077 -0.03343365
-0.016774021 -0.3078081 0.042377487 0.41635254 -0.11010893 0.036163896 -0.0461175 0.30059814
-0.43063352 0.7949423 -0.027713185 -0.050044574 0.5337135 0.0013494864 0.23160343 0.7097698
0.083299935 -0.17049158 -0.028687112 -0.61626023 -0.045403726 0.2724097 -0.5556031 -0.011871405
-0.0026311576 0.22310334 0.11242959 -0.06305175 0.62525415 -0.044007637 -0.4251955 -0.37675336
-0.0038966313 0.053337898 0.2007737 -0.7088059 0.20106673 0.34325448 -0.0694824 4.2895903e-05
-0.016132198 -0.03408894 1.3043157 0.34899998 -0.041025735 0.012023468 -0.13576744 0.3047024
-0.0082224645 -0.42729047 -0.46519858 -1.0966674 0.15004884 -0.4422926 -1.7119142 -0.22243549
-0.022613749 -0.22209701 -0.44017255 0.5190409 0.0045155287 0.5615744 -2.2324224 -0.3485918
0.09572488 0.05814623 0.4736213 1.1819527 0.3090573 -0.08486048 0.22171329 0.261526
0.034454726 0.08223833 -0.039124317 -0.47212154 0.008966166 0.06262631 0.05077366 -0.3950342
-0.28912172 1.0288036 -0.035639726 -0.1287691 -0.2608589 -0.010812648 -0.21549879 -0.17229615
-0.10784394 0.683996 -0.006959036 -0.669474 -0.53542954 0.0022347847 0.11312824 -0.8120694
-0.02954788 0.537148 -0.0017043278 1.0648882 -0.57820976 0.014049722 -0.004303977 0.79901457
0.4143144 -0.28936386 1.0174943 -0.04061514 -0.3426024 0.09324065 -0.1809605 1.0079743
0.005410619 -0.33824238 0.21421295 0.5949802 0.16721213 -0.123343706 0.15144062 -0.6342398
0.50003445 0.30488196 -0.39240643 -0.11517382 0.08462014 0.054655157 0.054282732 0.0028115138
0.5666893 0.022679405 0.2275954 1.1187707 0.0003485605 0.5246025 0.13426562 0.18704803
0.39652467 0.005960673 0.26823485 0.5613232 -0.34770328 -0.30128735 -1.524639 0.0833539
0.04299458 -0.12614068 0.319814 -0.68711346 0.7421334 0.22059548 -0.56638914 0.061524414
0.3310943 0.5367525 1.151579 -0.35825476 -0.06526072 0.2278771 -0.31679174 0.9863207
-0.019673321 0.050933126 0.14940917 0.20024854 -0.5977262 -0.3292879 0.19186328 0.87012434
0.0025373797 1.3546444 0.90785795 -0.22249055 -0.48460722 -0.5095918 -0.482132 -0.9717406
-0.010321289 0.05482334 -0.16923854 0.033403933 -0.107258305 -0.11793984 -1.0461422 -0.4627214
0.06238866 0.035153165 0.29601553 -0.00757961 -0.056330517 -0.07824345 -0.8509957 0.020990603
0.43287152 0.104112394 0.00090610236 0.88305783 -0.30282742 -0.07805081 0.027058937 -0.37191063
0.080834836 -1.7518256 -0.3119479 -0.27937657 -0.97174484 -0.05484225 -0.026035085 -0.40804058
-0.062882416 0.51398635 0.0868301 -0.24453734 -0.6404319 -0.27323782 -0.535666 -0.27866426
0.26034704 -0.12898614 -0.55344945 0.55732286 0.66969264 0.047388606 -1.5331956 -0.5516522
-0.42147794 -0.1985107 0.44920793 0.74885404 -0.011579417 0.0010215193 0.7137089 -0.064214356
-1.0386933 -0.21889956 0.017000273 0.3160104 0.2950619 0.05437652 -0.05722741 -0.32729286
0.430235 -0.022628807 0.05335682 0.09931029 0.34476054 0.16596349 -0.33164042 0.51980907
00000000: a908 a53f 5f6f a1be 7887 153c d82a 853c
00000010: 3310 f43e 012e 5c3d c1e8 e8be b9f1 08bd
00000020: ac69 89bc 0699 9dbe 0494 2d3d 292c d53e
00000030: ca80 e1bd 9820 143d b4e5 3cbd 00e8 993e
00000040: ff7b dcbe 5781 4b3f c306 e3bc 8afb 4cbd
00000050: 73a1 083f 40e1 b03a 7329 6d3e 79b3 353f
00000060: 2899 aa3d 5895 2ebe 3c01 ebbc 3bc3 1dbf
00000070: 42f9 39bd 4979 8b3e 013c 0ebf 4880 42bc
00000080: 806f 2cbb 3475 643e 7c41 e63d 4721 81bd
00000090: a810 203f 5a41 34bd 39b3 d9be d1e5 c0be
000000a0: a05e 7fbb d778 5a3d 9f97 4d3e 4e74 35bf
000000b0: 70e4 4d3e 0dbf af3e ca4c 8ebd 20eb 3338
000000c0: ac27 84bc d8a0 0bbd d1f3 a63f 20b0 b23e
000000d0: 9a0a 28bd 14fe 443c 9f06 0bbe f401 9c3e
000000e0: 84b7 06bc d1c5 dabe 822e eebe 995f 8cbf
000000f0: 67a6 193e 2d74 e2be 0120 dbbf 21c6 63be
00000100: 7840 b9bc 666d 63be 4c5e e1be dddf 043f
00000110: 00f7 933b 57c3 0f3f 02e0 0ec0 a07a b2be
00000120: 680b c43d be2a 6e3d 7e7e f23e 3a4a 973f
00000130: c23c 9e3e 55cb adbd cf08 633e bce6 853e
00000140: 6620 0d3d 926c a83d d240 20bd eab9 f1be
00000150: d3e6 123c 3942 803d 0bf8 4f3d ec41 cabe
00000160: c307 94be d6af 833f f6fa 11bd 0cdc 03be
00000170: 4c8f 85be 8827 31bc b7ab 5cbe 676e 30be
00000180: 49dd dcbd 5d1a 2f3f a008 e4bb a662 2bbf
00000190: e911 09bf 7775 123b c7af e73d c8e3 4fbf
000001a0: 650e f2bc 8882 093f c063 dfba 424e 883f
000001b0: 8e05 14bf ce30 663c 6008 8dbb 388c 4c3f
000001c0: 0421 d43e 8027 94be 413d 823f 105c 26bd
000001d0: 9569 afbe f4f4 be3d b64d 39be 4d05 813f
000001e0: 904b b13b 1b2e adbe a45a 5b3e 9f50 183f
000001f0: a839 2b3e a09b fcbd 4013 1b3e 8a5d 22bf
00000200: 4202 003f 7d19 9c3e 7fe9 c8be 40e0 ebbd
00000210: 534d ad3d 16de 5f3d 9257 5e3d 6041 383b
00000220: 8d12 113f 29ca b93c c50e 693e e133 8f3f
00000230: 00bf b639 594c 063f ed7c 093e 8589 3f3e
00000240: 4805 cb3e c051 c33b 1456 893e e1b2 0f3f
00000250: 2a06 b2be 5642 9abe 5f27 c3bf 73b5 aa3d
00000260: 161b 303d 062b 01be a9be a33e abe6 2fbf
00000270: 74fc 3d3f c8e3 613e e1fe 10bf 0601 7c3d
00000280: 3185 a93e 9d68 093f f166 933f 2b6d b7be
00000290: 6aa7 85bd 9d58 693e 8732 a2be 837f 7c3f
000002a0: f229 a1bc 419f 503d b8fe 183e f40d 4d3e
000002b0: 9604 19bf 6c98 a8be cf77 443e 78c0 5e3f
000002c0: 2b4a 263b fd64 ad3f 6169 683f 90d4 63be
000002d0: 701e f8be 9c74 02bf 01da f6be fec3 78bf
000002e0: a01a 29bc 708e 603d de4c 2dbe 90d2 083d
000002f0: 3eaa dbbd 718a f1bd fde7 85bf d2e9 ecbe
00000300: 408b 7f3d c4fc 0f3d 598f 973e 615e f8bb
00000310: d4ba 66bd 1a3e a0bd dbda 59bf 7cf4 ab3c
00000320: 56a1 dd3e e138 d53d 8087 6d3a 1410 623f
00000330: 320c 9bbe 1ad9 9fbd b4aa dd3c 126b bebe
00000340: bc8c a53d d23b e0bf a3b7 9fbe 720a 8fbe
00000350: 45c4 78bf 44a2 60bd 8847 d5bc b2ea d0be
00000360: 7fc8 80bd 9c94 033f fbd3 b13d ff67 7abe
00000370: 58f3 23bf d4e5 8bbe 6821 09bf 15ad 8ebe
00000380: 354c 853e f114 04be ddae 0dbf b6ac 0e3f
00000390: fa70 2b3f 8e1a 423d c13f c4bf 1439 0dbf
000003a0: f5cb d7be 6446 4bbe 95fe e53e e6b4 3f3f
000003b0: 98b7 3dbc 80e4 853a a0b5 363f d182 83bd
000003c0: e7f3 84bf 3527 60be 2844 8b3c 1dcc a13e
000003d0: 5a12 973e eab9 5e3d 4a67 6abd ee92 a7be
000003e0: c347 dc3e 0c60 b9bc ae8c 5a3d 3163 cb3d
000003f0: 7484 b03e 55f2 293e c6cc a9be 3512 053f

fc2.bias f4 [128]
0.17012204 -0.017660856 0.49887574 -0.018783227 -0.15077399 0.026498139 -0.384526 -0.11931038
-0.045929123 -0.037077796 0.017850649 -0.06101137 -0.1075246 0.21954931 -0.0052163843 -0.115249895
-0.34330076 -0.094228745 -0.5161685 -0.03026808 0.024209486 0.17225303 -0.2185871 0.18108456
0.7388223 0.1800512 0.058428615 0.45716926 0.34393892 -0.086954854 -0.07960317 -0.8898292
0.58385223 -0.15162466 -0.5095371 0.026297903 0.3952862 0.3022004 -0.033487 -0.22008702
0.04044283 -0.075655065 -0.42881483 0.13253959 -0.18536353 -0.08008591 0.19830087 0.024652746
0.14410481 0.46529606 0.2788506 -0.011147085 -0.076527074 0.01664377 -0.029670278 -0.06283284
-0.07871304 0.3488842 -0.081269555 -0.013784931 -0.18499756 -0.04316582 0.017100878 -0.100121304
-0.03814394 0.46665335 -0.049893394 0.031753007 0.5042465 0.23326203 0.023253921 -0.11675516
0.012355956 -0.08379924 -0.26406494 -0.05877178 -0.026481818 -0.05354064 -0.060232565 0.003321352
-0.058934305 -0.08078584 -0.017220981 -0.14826097 0.087728225 -0.691055 0.16727658 -0.9739596
-0.038227733 -0.01875749 -0.077361114 -0.21214506 -0.012562098 -0.6526419 -0.020165326 -0.023138693
0.0035838145 0.62004995 -0.013334616 -0.09452312 -0.08319031 -0.09845149 -0.3749925 -0.32353446
-0.0029390412 -0.074484415 -0.1299058 0.107809186 -0.12149832 0.17359538 0.020661373 -0.16795528
0.051329415 0.015034983 -0.11193063 -0.50868416 -0.12087806 -0.2949572 0.43775976 0.70337963
-0.35602894 -0.089093044 0.28879535 0.0046352046 0.58970153 -0.17150825 0.025902677 -0.04384177
00000000: 7934 2e3e 80ad 90bc a46c ff3e 48df 99bc
00000010: 7f64 1abe a012 d93c 98e0 c4be 0059 f4bd
00000020: 2d20 3cbd e3de 17bd 863b 923c 0fe7 79bd
00000030: dc35 dcbd 89d1 603e 34ee aabb 2308 ecbd
00000040: 1ec5 afbe 00fb c0bd 9e23 04bf c4f4 f7bc
00000050: f952 c63c 1963 303e 4cd5 5fbe 3b6e 393e
00000060: 7523 3d3f 575f 383e d852 6f3d 1712 ea3e
00000070: c318 b03e 6315 b2bd fd06 a3bd d9cb 63bf
00000080: 5777 153f 7f43 1bbe 0671 02bf b36e d73c
00000090: f462 ca3e 03ba 9a3e aa29 09bd 7e5e 61be
000000a0: 62a7 253d 0bf1 9abd 9e8d dbbe 75b8 073e
000000b0: f0cf 3dbe 1504 a4bd 620f 4b3e 8ef4 c93c
000000c0: 3690 133e 493b ee3e 81c5 8e3e 43a2 36bc
000000d0: 3aba 9cbd 8458 883c 150f f3bc 81ae 80bd
000000e0: 4d34 a1bd f3a0 b23e a770 a6bd 31da 61bc
000000f0: 0070 3dbe a5ce 30bd 2417 8c3c 660c cdbd
00000100: d23c 1cbd 30ed ee3e 045d 4cbd 710f 023d
00000110: 4c16 013f 3edc 6e3e 027f be3c 541d efbd
00000120: a370 4a3c f09e abbd 8533 87be aeba 70bd
00000130: 66f0 d8bc 6e4d 5bbd 6cb6 76bd 0aab 593b
00000140: 1965 71bd 0c73 a5bd 0413 8dbc b9d1 17be
00000150: dbaa b33d fbe8 30bf 8d4a 2b3e 6b55 79bf
00000160: af94 1cbd 4fa9 99bc 816f 9ebd 8e3c 59be
00000170: 42d1 4dbc 8a13 27bf c131 a5bc 5b8d bdbc
00000180: 6ede 6a3b 98bb 1e3f 6f79 5abc 5695 c1bd
00000190: ae5f aabd efa0 c9bd 04ff bfbe 4fa6 a5be
000001a0: ee9c 40bb 498b 98bd 0706 05be 10cb dc3d
000001b0: 1cd4 f8bd fdc2 313e 0a42 a93c 78fc 2bbe
000001c0: cb3e 523d 4a55 763c e33b e5bd 2039 02bf
000001d0: eb8e f7bd a104 97be 0c22 e03e b010 343f
000001e0: 6d49 b6be 6a76 b6bd fcdc 933e eae2 973b
000001f0: aef6 163f dc9f 2fbe da31 d43c 6e93 33bd

fc3.weight f4 [64, 128]
0.51093817 0.059620947 -0.25390452 -0.0071831727 0.09582603 0.043993924 0.31486925 0.04077583
0.09524143 0.027382987 -0.045876738 -0.0179916 -0.08328541 0.19455525 -0.047361173 0.25195357
-0.40786922 0.015896132 -0.028146334 -0.12416369 0.54202634 -2.0685232 -0.033138305 -0.0670449
0.16596182 -0.055353932 0.39329362 -0.028850717 -0.21195848 -0.028731668 0.082338 -0.14928158
0.12935022 0.02122766 0.11219972 0.047882486 -0.10246114 -0.054939616 0.01647094 0.3069755
0.09222057 0.11299834 -0.13083798 0.2997777 0.21583483 0.004554837 0.2158823 0.11556401
0.3112024 -0.35501498 -0.027784752 0.026067505 -0.05633851 0.016377728 0.0070770336 0.012466636
0.025397943 0.08945253 -0.005698417 0.070300505 -0.31484225 0.07920353 0.65142286 -0.12886105
-0.050370067 -0.17365445 -0.01682717 -0.017418439 0.13719861 0.3873832 0.07756777 0.11416314
0.041578684 -0.044323288 -0.22178604 -0.013624027 -0.04554797 0.029966172 -0.117398955 -0.0070858146
0.010286012 0.1066079 -0.8627942 -0.07683433 -0.69069344 -0.1265467 0.77113515 0.525593
-0.0035677652 -0.018000789 0.10959198 -0.08387856 -0.027874215 -0.4660375 -0.026947925 -0.046242893
0.0027350814 0.84223354 0.2452193 -0.21058005 0.052153576 0.010616854 -0.3665525 0.1934659
-0.06911655 0.10346569 -0.1615591 0.54671395 -0.014083452 0.09878756 0.04628141 -0.06747828
0.41724947 0.09568792 0.1583956 -0.13614853 -0.06735063 -0.22395407 -0.057034813 -0.036322527
0.1030607 0.07196146 0.21099898 0.27305886 -1.313677 0.31463423 0.03514726 -0.0037002568
0.36070514 0.038098052 -1.8669735 0.060418993 -0.04817945 0.009337144 -1.9287328 -0.003768592
-0.13359012 0.03740041 0.014872676 -0.09289527 -0.11625369 -0.1168092 -0.0030811664 0.095837995
-0.8464127 -0.1019731 0.22644764 -0.12874031 -0.8406495 0.15718794 0.057326168 0.20887244
0.35198438 -0.0123832 -1.8961474 -0.90010595 0.2551265 -0.08483054 -0.043473806 0.05896414
0.24492195 -0.04482884 0.33873835 0.042756427 -0.66917324 0.3121288 0.3967562 -0.032979168
-1.7377247 -0.05885763 0.29991823 0.41354638 -0.03953845 -0.09278247 0.32518283 0.0057928134
0.23493455 0.2764244 0.24721399 -0.036898743 0.057717472 0.06625379 0.04099147 -0.089636795
-0.012238012 0.21586332 -0.08595928 -0.048588246 0.2793224 -1.674958 -0.38825384 0.0897429
-0.05909412 -1.0329844 0.02920821 0.02944943 0.51972294 -1.720797 0.048171755 -0.13109206
0.037600677 -0.061417073 0.04156947 0.055261046 -0.07198735 -0.010798544 0.0746098 0.04668402
0.004888539 -0.083107725 -0.017598514 0.016976189 -1.0126501 0.11395456 0.9287984 -0.33091357
-0.05843628 -0.06791894 -0.08044337 0.008001726 -0.81106836 -0.007753675 -0.05250789 -0.061355546
-0.109324016 1.3878437 -0.7375417 0.15313166 0.04560267 -0.054055765 -0.039332435 0.19352157
0.34352455 -0.0809998 0.15694937 0.19707918 -0.082606636 -1.2187362 0.045381114 -0.9625495
0.32958794 0.00019894027 0.017261151 0.1527063 -0.1404519 -0.008858365 0.27335027 0.3427764
0.040481653 -0.052833382 0.052663065 -0.026678728 0.08894237 -0.7615724 -0.09784265 -0.05297199
00000000: d8cc 023f 1835 743d c6ff 81be d260 ebbb
00000010: 7040 c43d f932 343d 8b36 a13e 8f04 273d
00000020: f00d c33d 4952 e03c 3fe9 3bbd 1f63 93bc
00000030: 8b91 aabd 7e39 473e cafd 41bd 0f00 813e
00000040: 3cd4 d0be 9b38 823c 2493 e6bc 8849 febd
00000050: 3dc2 0a3f af62 04c0 08bc 07bd d64e 89bd
00000060: e5f1 293e ceba 62bd c85d c93e 5758 ecbc
00000070: a50b 59be ad5e ebbc d3a0 a83d 45dd 18be
00000080: 6274 043e a1e5 ad3c f8c8 e53d 6d20 443d
00000090: 25d7 d1bd 5d08 61bd 11ee 863c e52b 9d3e
000000a0: 23de bc3d ac6b e73d 64fa 05be 767c 993e
000000b0: ce03 5d3e be40 953b 4010 5d3e d3ac ec3d
000000c0: ec55 9f3e 86c4 b5be d99c e3bc 858b d53c
000000d0: 36c3 66bd 962a 863c 76e6 e73b dc40 4c3c
000000e0: 590f d03c e332 b73d c9b9 babb b6f9 8f3d
000000f0: 0133 a1be 7635 a23d a6c3 263f 27f4 03be
00000100: d850 4ebd 79d2 31be 22d9 89bc 1db1 8ebc
00000110: cb7d 0c3e 1757 c63e dadb 9e3d 5dce e93d
00000120: 694e 2a3d 568c 35bd e11b 63be 5037 5fbc
00000130: 8290 3abd 9e7b f53c dd6e f0bd 1f30 e8bb
00000140: a986 283c 3e55 da3d 15e0 5cbf 515b 9dbd
00000150: 49d1 30bf 7595 01be 1d69 453f 438d 063f
00000160: 2bd1 69bb 6476 93bc c371 e03d 86c8 abbd
00000170: 7758 e4bc 789c eebe e5c1 dcbc 3069 3dbd
00000180: 0d3f 333b 9e9c 573f c51a 7b3e 4ca2 57be
00000190: fd9e 553d 50f2 2d3c c5ac bbbe ed1b 463e
000001a0: fa8c 8dbd d2e5 d33d c06f 25be 72f5 0b3f
000001b0: 47be 66bc 2251 ca3d 9391 3d3d 0d32 8abd
000001c0: b9a1 d53e 07f8 c33d 7532 223e 856a 0bbe
000001d0: 21ef 89bd 3754 65be 569d 69bd eec6 14bd
000001e0: 7d11 d33d 8860 933d 1e10 583e 5fce 8b3e
000001f0: 9126 a8bf bd17 a13e 93f6 0f3d 0280 72bb
00000200: 58ae b83e b40c 1c3d fdf8 eebf e879 773d
00000210: d157 45bd d2fa 183c b7e0 f6bf 7bfa 76bb
00000220: d9cb 08be 2c31 193d 86ac 733c e03f bebd
00000230: 6a16 eebd a939 efbd 65ed 49bb b646 c43d
00000240: 81ae 58bf 46d7 d0bd e4e1 673e 80d4 03be
00000250: ce34 57bf e0f5 203e d8ce 6a3d a8e2 553e
00000260: 4c37 b43e e8e2 4abc f5b4 f2bf 586d 66bf
00000270: f19f 823e a2bb adbd 9711 32bd 6284 713d
00000280: d2cc 7a3e 729e 37bd 1d6f ad3e 5d21 2f3d
00000290: f04e 2bbf 59cf 9f3e a123 cb3e 2a15 07bd
000002a0: c36d debf b314 71bd e28e 993e 5abc d33e
000002b0: 12f3 21bd bc04 bebd 5d7e a63e a4d1 bd3b
000002c0: af92 703e 8087 8d3e aa25 7d3e 2323 17bd
000002d0: 2869 6c3d 11b0 873d ace6 273d 7f93 b7bd
000002e0: f181 48bc 460b 5d3e 6b0b b0bd 7804 47bd
000002f0: 5803 8f3e 0665 d6bf 35c9 c6be 20cb b73d
00000300: ad0c 72bd d538 84bf 0e46 ef3c ee3f f13c
00000310: 900c 053f 1343 dcbf bf4f 453d ff3c 06be
00000320: 2b03 1a3d 7890 7bbd c044 2a3d 6859 623d
00000330: 1b6e 93bd 60ec 30bc 06cd 983d be37 3f3d
00000340: 0a30 a03b 6234 aabd c22a 90bc a611 8b3c
00000350: 859e 81bf 0261 e93d bbc5 6d3f 816d a9be
00000360: e15a 6fbd 1619 8bbd 7ebf a4bd ac19 033c
00000370: 2da2 4fbf 8a12 febb 8312 57bd f44f 7bbd
00000380: 45e5 dfbd dda4 b13f 88cf 3cbf 8cce 1c3e
00000390: dec9 3a3d 9469 5dbd 0c1b 21bd 852a 463e
000003a0: 73e2 af3e 39e3 a5bd 56b7 203e 20cf 493e
000003b0: ab2d a9bd 8cff 9bbf 8ce1 393d a569 76bf
000003c0: c0bf a83e 9f9a 5039 4267 8d3c 0a5f 1c3e
000003d0: 9fd2 0fbe ad22 11bc 91f4 8b3e 6380 af3e
000003e0: 17d0 253d d167 58bd 3ab5 573d 598d dabc
000003f0: 6b27 b63d 69f6 42bf ba61 c8bd 28f9 58bd

fc3.bias f4 [64]
-0.58053195 0.9227782 0.025471276 0.850112 -0.119351886 0.024002481 -0.073646165 -0.699926
-0.11898417 0.21278873 -1.2089884 -0.13073821 -0.19690372 -0.109987244 -0.5555464 -0.048155908
-0.606705 -0.023730986 0.4376125 0.036111917 1.0986037 -0.03531026 -0.124215 -0.053040896
-0.0023135701 -0.0049656425 -0.006967773 0.020563377 -0.026610563 0.37158504 -0.05168532 0.01733182
0.012047796 -1.1312408 -0.06158406 -0.30269787 0.39227986 -0.18199313 -0.12883273 1.3376845
-0.08689743 -0.77625376 -0.093730316 -0.2946107 -0.7882211 -0.035030775 1.5319916 0.47258806
-0.021807734 -0.15863179 -0.8558009 -0.07608487 -0.13660365 -1.0449727 -0.14077303 -1.2749866
0.0013633596 0.7493231 -0.07294867 0.049170367 1.1513954 -0.17746349 -0.06142693 0.00062345114
00000000: be9d 14bf 313b 6c3f 23a9 d03c f1a0 593f
00000010: c36e f4bd daa0 c43c cdd3 96bd 5a2e 33bf
00000020: f9ad f3bd 4ae5 593e 22c0 9abf 3de0 05be
00000030: 21a1 49be fe40 e1bd 4a38 0ebf 213f 45bd
00000040: 0551 1bbf 7c67 c2bc bf0e e03e 17ea 133d
00000050: 0c9f 8c3f 7ea1 10bd 6f64 febd 6941 59bd
00000060: 449f 17bb d4b6 a2bb eb51 e4bb 8774 a83c
00000070: 65fe d9bc 6540 be3e fcb3 53bd 76fb 8d3c
00000080: 1e64 453c 80cc 90bf 913f 7cbd 37fb 9abe
00000090: e8d8 c83e 685c 3abe baec 03be 3f39 ab3f
000000a0: 48f7 b1bd 91b8 46bf aef5 bfbd 37d7 96be
000000b0: dcc8 49bf 6e7c 0fbd 4d18 c43f 10f7 f13e
000000c0: 22a6 b2bc 5f70 22be c515 5bbf 62d2 9bbd
000000d0: d4e1 0bbe aac1 85bf ce26 10be c332 a3bf
000000e0: c2b2 b23a a4d3 3f3f 1d66 95bd de66 493d
000000f0: ed60 933f fdb8 35be ce9a 7bbd 196f 233a

fc4.weight f4 [4, 64]
-0.2524735 -0.5730817 -0.03346774 0.12594405 -0.23241687 -0.011289354 0.050833244 0.23144317
-0.08348785 -0.3156258 -0.12426357 0.09031973 -0.4277776 0.03837523 -0.5688869 0.026387697
-0.4999918 -0.003305599 0.23029315 0.5231995 0.1324492 0.84421474 -0.034808878 0.061280806
0.026806995 0.04918514 0.07782103 -0.099833265 0.0320138 -0.7771015 -0.07155566 0.044977516
-0.055404294 -0.20698033 0.14367765 -0.053983957 -0.78349394 -0.11658281 -0.1302042 1.6300268
-0.06181363 -0.24251454 0.12473001 -0.3016886 -0.29855853 0.019880492 0.5318256 0.10637733
0.029370278 0.015433206 -0.1663598 0.17137648 -0.11257765 0.09321532 0.08920547 -0.16691485
-0.06343139 0.09454174 0.04498316 0.19062415 0.08209795 -0.23729429 0.04819211 0.106285885
-0.30143884 0.72501796 -0.04441367 0.8516771 -0.7785289 -0.01356156 0.13910086 -0.29150027
0.07474361 -0.2226192 -0.24134864 -0.4697289 -0.70032734 0.03205225 0.004261893 -0.06894112
-0.18322441 -0.029428083 -0.39189327 -0.50476366 0.6588333 -1.0596725 -0.1020382 -0.077571616
-0.0605049 -0.024791993 -0.081880786 -0.021005271 -0.054234143 0.43994206 -0.025018185 -0.10764359
0.034206253 -0.13370407 -0.00014495151 -0.13214797 0.09961138 0.122359894 0.22540967 0.19864573
-0.012563078 0.07979473 -0.17784189 -0.04926165 -0.18148446 0.013940337 1.05554 -0.2824887
-0.013992945 -0.0012935203 -0.30610278 0.24663478 0.085925505 0.21997339 0.27578303 -0.090723686
0.073303536 -0.44472495 -0.060207926 0.41937205 0.90095174 -0.10174204 0.07805793 -0.032254025
-0.2301468 0.18392892 0.07170938 0.049081977 -0.1974361 -0.05912332 0.06823413 -0.75062877
0.10558103 0.365121 -0.16042662 -0.7657173 -0.056290373 -0.088601895 -0.5535856 0.009544275
-0.032510143 0.0020742062 -0.016477672 0.21099268 0.75785536 -0.3936566 0.025622062 -0.025695508
0.056373622 -6.246183e-05 0.058180574 0.08636686 -0.01563862 -1.3223794 -0.08964106 0.040570617
0.08783968 0.0030618443 0.034935262 0.047378458 -0.9554641 0.0891404 0.2701127 -0.10802668
0.01711335 -0.102913775 -0.011534017 0.24348114 0.01553726 0.07132672 0.11522239 0.62968624
0.007778568 0.027877677 -0.12186955 -0.27950057 -0.043005414 -0.7798171 -0.07292609 -0.09500319
0.019505216 0.07471529 -0.0030160944 -1.0025418 0.51753414 0.30128393 -0.12852798 0.078515105
0.31012857 0.79332304 -0.11393185 0.62065303 0.07290261 -0.079094216 0.06511198 -0.103644535
-0.06742386 -0.03975786 -0.23201202 0.21340446 0.4818113 0.0047922335 0.07844606 0.049734637
0.053497214 -0.038677633 0.04416333 -0.55927825 -1.1653935 -0.26790777 -0.0010762758 -0.038534418
-0.11699343 0.03580452 0.033301506 -0.050176024 0.12078388 0.11340785 0.046272032 -0.16245307
0.003731392 -0.23707202 0.10364303 0.2305878 0.72684836 0.04357876 -0.44419208 0.259088
-0.07056976 -0.5211762 0.11425371 -0.13801323 0.008607334 0.14919779 1.0455271 -0.15529963
0.043811228 -0.15863933 -0.02909513 -0.95315814 0.09319162 -0.60706806 -0.30717197 -0.29876515
-0.15174319 0.5644963 0.05198499 0.02205634 0.9214025 -0.17768332 -0.06962406 -0.04412868
00000000: 3544 81be 7bb5 12bf 7815 09bd 7af7 003e
00000010: b0fe 6dbe fcf6 38bc 8536 503d 70ff 6c3e
00000020: aefb aabd b499 a1be e67d febd 8df9 b83d
00000030: aa05 dbbe 582f 1d3d 92a2 11bf 032b d83c
00000040: edfe ffbe c0a2 58bb f8d1 6b3e 67f0 053f
00000050: c3a0 073e 751e 583f c193 0ebd 9501 7b3d
00000060: 589a db3c 5b76 493d a260 9f3d 6275 ccbd
00000070: e720 033d 20f0 46bf c68b 92bd 583a 383d
00000080: 9def 62bd a7f2 53be 3c20 133e 481e 5dbd
00000090: 0f93 48bf f8c2 eebd 4054 05be b8a4 d03f
000000a0: 4a30 7dbd bb55 78be 7372 ff3d ee76 9abe
000000b0: aadc 98be 6adc a23c b925 083f 5cdc d93d
000000c0: f099 f03c 8fdb 7c3c 395a 2abe 517d 2f3e
000000d0: 1c8f e6bd ace7 be3d 5cb1 b63d baeb 2abe
000000e0: 51e8 81bd 1a9f c13d 4340 383d fa32 433e
000000f0: f822 a83d 46fd 72be 1765 453d 6aac d93d
00000100: 3156 9abe c79a 393f 1ceb 35bd 8307 5a3f
00000110: ac4d 47bf 4e31 5ebc 7570 0e3e 863f 95be
00000120: 2e13 993d 4af6 63be 1924 77be 4e80 f0be
00000130: a748 33bf 3849 033d 5aa7 8b3b 0031 8dbd
00000140: 2e9f 3bbe 2a13 f1bc 3ca6 c8be 3138 01bf
00000150: 4da9 283f 59a3 87bf 67f9 d0bd dedd 9ebd
00000160: fcd3 77bd 9418 cbbc 1db1 a7bd 3f13 acbc
00000170: 9f24 5ebd 1640 e13e f0f2 ccbc 3e74 dcbd
00000180: db1b 0c3d b8e9 08be 20fe 17b9 cc51 07be
00000190: 0d01 cc3d d397 fa3d cbd1 663e c969 4b3e
000001a0: 5ed5 4dbc 6b6b a33d 2f1c 36be 95c6 49bd
000001b0: 10d7 39be 0366 643c ef1b 873f 5ca2 90be
000001c0: aa42 65bc 578b a9ba 81b9 9cbe d48d 7c3e
000001d0: b6f9 af3d b440 613e 6f33 8d3e 57cd b9bd
000001e0: 2a20 963d fdb2 e3be 969c 76bd efb7 d63e
000001f0: c6a4 663f 215e d0bd d6dc 9f3d cc1c 04bd
00000200: 9aab 6bbe dd57 3c3e 5edc 923d 2f0a 493d
00000210: b02c 4abe 4b2b 72bd 56be 8b3d 3529 40bf
00000220: de3a d83d 24f1 ba3e e046 24be 0d06 44bf
00000230: bc90 66bd e974 b5bd c9b7 0dbf 975f 1c3c
00000240: 5b29 05bd 68ef 073b 2ffc 86bc 770e 583e
00000250: cf02 423f 5c8d c9be 5ce5 d13c 637f d2bc
00000260: 07e8 663d f1fd 82b8 c14e 6e3d 1ce1 b03d
00000270: 901c 80bc ba43 a9bf bb95 b7bd 602d 263d
00000280: 4ae5 b33d 39a9 483b 4718 0f3d ea0f 423d
00000290: 4c99 74bf 3e8f b63d 364c 8a3e 183d ddbd
000002a0: 4c31 8c3c 75c4 d2bd 2cf9 3cbc 1f53 793e
000002b0: fe8f 7e3c be13 923d b7f9 eb3d 1e33 213f
000002c0: 5ce3 fe3b ba5f e43c be96 f9bd b31a 8fbe
000002d0: 7226 30bd 18a2 47bf 465a 95bd 0891 c2bd
000002e0: 67c9 9f3c 5404 993d aba9 45bb 4a53 80bf
000002f0: 1e7d 043f e341 9a3e d79c 03be 87cc a03d
00000300: 2cc9 9e3e 3817 4b3f 1a55 e9bd 1ee3 1e3f
00000310: f74d 953d 26fc a1bd 6e59 853d 9643 d4bd
00000320: 8515 8abd 23d9 22bd 8f94 6dbe b386 5a3e
00000330: f9af f63e 2b08 9d3b 54a8 a03d 8cb6 4b3d
00000340: e51f 5b3d 706c 1ebd 9ce4 343d dc2c 0fbf
00000350: 9d2b 95bf 352b 89be d311 8dba 44d6 1dbd
00000360: 409a efbd c3a7 123d 2967 083d 6085 4dbd
00000370: 8a5d f73d 6042 e83d be87 3d3d 195a 26be
00000380: 5f8a 743b 02c3 72be cc42 d43d 351f 6c3e
00000390: bc12 3a3f a47f 323d 256d e3be 2fa7 843e
000003a0: e186 90bd ce6b 05bf d9fd e93d 5753 0dbe
000003b0: c705 0d3c 4ec7 183e d5d3 853f de06 1fbe
000003c0: 6773 333d 5972 22be e958 eebc 2c02 74bf
000003d0: 40db be3d d068 1bbf a545 9dbe bff7 98be
000003e0: 9162 1bbe d482 103f 36ee 543d 7faf b43c
000003f0: 09e1 6b3f 9ef2 35be 0f97 8ebd 46c0 34bd

fc4.bias f4 [4]
0.5977461 0.38500962 1.3043909 0.65713763
00000000: e305 193f fb1f c53e 48f6 a63f 2c3a 283f
